…
<li><p>torchinfo的模型summary信息(以Transformer)如下： </p><figure class="highlight nestedtext"><table><tbody><tr><td class="code"><pre><span class="line">=========================================================================================================</span><br><span class="line">Layer (type:depth-idx)                                  Output Shape              Param #</span><br><span class="line"><span class="attribute">=========================================================================================================</span></span><br><span class="line"><span class="attribute">Transformer                                             [16, 256, 22466]          --</span></span><br><span class="line"><span class="attribute">├─InputEmbedding</span><span class="punctuation">:</span> <span class="string">1-1                                   [16, 256, 512]            --</span></span><br><span class="line"><span class="attribute">│    └─Embedding</span><span class="punctuation">:</span> <span class="string">2-1                                   [16, 256, 512]            8,038,912</span></span><br><span class="line"><span class="attribute">├─PositionalEncoding</span><span class="punctuation">:</span> <span class="string">1-2                               [16, 256, 512]            --</span></span><br><span class="line"><span class="attribute">│    └─Dropout</span><span class="punctuation">:</span> <span class="string">2-2                                     [16, 256, 512]            --</span></span><br><span class="line"><span class="attribute">├─Encoder</span><span class="punctuation">:</span> <span class="string">1-3                                          [16, 256, 512]            --</span></span><br><span class="line"><span class="attribute">│    └─ModuleList</span><span class="punctuation">:</span> <span class="string">2-3                                  --                        --</span></span><br><span class="line"><span class="attribute">│    │    └─EncoderBlock</span><span class="punctuation">:</span> <span class="string">3-1                           [16, 256, 512]            3,150,340</span></span><br><span class="line"><span class="attribute">│    │    └─EncoderBlock</span><span class="punctuation">:</span> <span class="string">3-2                           [16, 256, 512]            3,150,340</span></span><br><span class="line"><span class="attribute">│    │    └─EncoderBlock</span><span class="punctuation">:</span> <span class="string">3-3                           [16, 256, 512]            3,150,340</span></span><br><span class="line"><span class="attribute">│    │    └─EncoderBlock</span><span class="punctuation">:</span> <span class="string">3-4                           [16, 256, 512]            3,150,340</span></span><br><span class="line"><span class="attribute">│    │    └─EncoderBlock</span><span class="punctuation">:</span> <span class="string">3-5                           [16, 256, 512]            3,150,340</span></span><br><span class="line"><span class="attribute">│    │    └─EncoderBlock</span><span class="punctuation">:</span> <span class="string">3-6                           [16, 256, 512]            3,150,340</span></span><br><span class="line"><span class="attribute">│    └─LayerNormalization</span><span class="punctuation">:</span> <span class="string">2-4                          [16, 256, 512]            2</span></span><br><span class="line"><span class="attribute">├─InputEmbedding</span><span class="punctuation">:</span> <span class="string">1-4                                   [16, 256, 512]            --</span></span><br><span class="line"><span class="attribute">│    └─Embedding</span><span class="punctuation">:</span> <span class="string">2-5                                   [16, 256, 512]            11,502,592</span></span><br><span class="line"><span class="attribute">├─PositionalEncoding</span><span class="punctuation">:</span> <span class="string">1-5                               [16, 256, 512]            --</span></span><br><span class="line"><span class="attribute">│    └─Dropout</span><span class="punctuation">:</span> <span class="string">2-6                                     [16, 256, 512]            --</span></span><br><span class="line"><span class="attribute">├─Decoder</span><span class="punctuation">:</span> <span class="string">1-6                                          [16, 256, 512]            --</span></span><br><span class="line"><span class="attribute">│    └─ModuleList</span><span class="punctuation">:</span> <span class="string">2-7                                  --                        --</span></span><br><span class="line"><span class="attribute">│    │    └─DecoderBlock</span><span class="punctuation">:</span> <span class="string">3-7                           [16, 256, 512]            4,200,966</span></span><br><span class="line"><span class="attribute">│    │    └─DecoderBlock</span><span class="punctuation">:</span> <span class="string">3-8                           [16, 256, 512]            4,200,966</span></span><br><span class="line"><span class="attribute">│    │    └─DecoderBlock</span><span class="punctuation">:</span> <span class="string">3-9                           [16, 256, 512]            4,200,966</span></span><br><span class="line"><span class="attribute">│    │    └─DecoderBlock</span><span class="punctuation">:</span> <span class="string">3-10                          [16, 256, 512]            4,200,966</span></span><br><span class="line"><span class="attribute">│    │    └─DecoderBlock</span><span class="punctuation">:</span> <span class="string">3-11                          [16, 256, 512]            4,200,966</span></span><br><span class="line"><span class="attribute">│    │    └─DecoderBlock</span><span class="punctuation">:</span> <span class="string">3-12                          [16, 256, 512]            4,200,966</span></span><br><span class="line"><span class="attribute">│    └─LayerNormalization</span><span class="punctuation">:</span> <span class="string">2-8                          [16, 256, 512]            2</span></span><br><span class="line"><span class="attribute">├─ProjectionLayer</span><span class="punctuation">:</span> <span class="string">1-7                                  [16, 256, 22466]          --</span></span><br><span class="line"><span class="attribute">│    └─Linear</span><span class="punctuation">:</span> <span class="string">2-9                                      [16, 256, 22466]          11,525,058</span></span><br><span class="line"><span class="attribute">=========================================================================================================</span></span><br><span class="line"><span class="attribute">Total params</span><span class="punctuation">:</span> <span class="string">75,174,402</span></span><br><span class="line"><span class="attribute">Trainable params</span><spa
…
